model_weight.pth (torch, 159105 bytes, 8 tensors)

conv1.bias f4 [128]
000000 7e ec ef 3b 0e 77 5b be 77 0c 12 3c de b1 0f bc
       0.0073218932 -0.21432135 0.008914105 -0.008770434
000010 5b 9e 9b bd 1d 01 bd be e7 12 07 bb 36 e6 2b 3e
       -0.07598563 -0.36914912 -0.0020610632 0.16787037
000020 17 d4 51 be 4d b9 b4 be c9 8f 62 be de 6c e0 3d
       -0.20491062 -0.35297623 -0.22125162 0.10958265
000030 28 90 29 3e 64 0f 9b bd 80 fb 8d bd 0a f1 a9 bd
       0.16558897 -0.07571295 -0.069327354 -0.08297928
000040 f6 91 f9 3d 37 46 08 3e f0 7c 65 be 38 9c 8a be
       0.12186043 0.13308035 -0.22410941 -0.2707231
000050 17 09 3e 3c f3 c2 b2 be a2 e0 c9 be 48 ec f4 bd
       0.011598847 -0.3491436 -0.39429194 -0.119591296
000060 e9 e5 29 3e 15 12 d4 be 5d b8 ed bc 35 28 b9 be
       0.1659161 -0.41420045 -0.029018575 -0.36163488
000070 7f bc 84 be 2b 8c f3 3d 4f 55 4e 3e 7e e0 bf bd
       -0.2592506 0.11891969 0.2014973 -0.0936899
000080 4c 0c fd bd 4c a9 5b be 20 69 b2 be d4 7a af be
       -0.12355861 -0.214513 -0.3484583 -0.34273398
000090 6a 58 c6 bc 17 33 0b bd 0f 3a 61 3e 97 dc 45 bd
       -0.024212081 -0.03398427 0.21994804 -0.048306074
0000a0 ee 4d 14 bd d0 bd 47 3e 2d ed 7a be cd 22 14 3e
       -0.036207132 0.19506001 -0.24504538 0.144664
0000b0 03 9b ed 3c 24 64 0f 3d 44 41 67 bc a5 13 8c be
       0.02900458 0.03500761 -0.014114682 -0.27358738
0000c0 b3 ce 9d be fd 05 dd bd c8 89 80 bd d5 39 21 3d
       -0.3082176 -0.10792158 -0.0627628 0.039361794
0000d0 43 90 24 be f1 19 b1 bd 20 f2 5b be 57 78 74 3d
       -0.16070656 -0.08647526 -0.21479082 0.059685078
0000e0 f0 a0 3c 3e 2a 77 51 bd 83 f8 61 bb bc f6 45 3e
       0.18420768 -0.051139034 -0.00344804 0.19332403
0000f0 09 3d 63 bc 1b 21 39 3d 7e be fd bd f2 a6 9c 3c
       -0.013869532 0.045197587 -0.12389849 0.019122574
000100 1a a8 1a 3d 39 4c 7c be 99 05 a7 be ba c5 3c bc
       0.03775797 -0.24638452 -0.32621458 -0.011521751
000110 20 7f 0e be 60 91 a5 be ac 1d 17 be b9 bb 9f 3d
       -0.13915682 -0.32337475 -0.14757413 0.07799477
000120 d8 9b a7 bd 1d a9 2b bd 26 b9 83 3e fb 72 31 3c
       -0.08184022 -0.041909326 0.25727195 0.010830636
000130 43 8f f7 bd c9 fa b9 bb 54 4c 92 be 5a cf 1d be
       -0.12087872 -0.005675648 -0.2857386 -0.1541113
000140 d3 f1 2e 3e 8a 9a 26 be 17 df 1f 3e 76 09 01 be
       0.17084436 -0.1626989 0.15612446 -0.12601265
000150 54 14 a4 3d 76 87 0d be f4 f6 ad 3d 82 13 16 3c
       0.0801169 -0.13821205 0.08494368 0.009159924
000160 b5 5a 15 3d a1 c7 2c 3d 02 c1 e2 bd df 8a 86 bb
       0.036463458 0.04218257 -0.110719696 -0.00410591
000170 a4 f1 56 bd c4 60 cf bd e6 a1 48 be 45 0d 7e be
       -0.05247654 -0.101258785 -0.1959301 -0.2480975
000180 6f c8 0f 3e e2 e8 3f be da 85 18 3e 27 25 a0 be
       0.14041303 -0.18741181 0.1489481 -0.31278345
000190 e4 6d 87 be c9 23 c7 3d 5d 40 09 3d ce 10 fe 3d
       -0.26451027 0.09723622 0.033508647 0.12405549
0001a0 92 32 43 be ed da 3b 3d 26 64 fd 3d b3 f7 73 3d
       -0.1906226 0.04586308 0.123726174 0.059562396
0001b0 c5 04 01 be 02 57 e0 bd 03 89 5d be 9c 42 72 bd
       -0.12599476 -0.109540954 -0.21634297 -0.059145555
0001c0 6f d0 82 be 76 45 93 be 84 3e 2a be aa cd 2e bd
       -0.25549647 -0.28763932 -0.1662541 -0.042676605
0001d0 31 06 3b bc 99 17 f1 bd 09 3f d2 be 99 90 63 be
       -0.01141505 -0.11772079 -0.41063717 -0.22223128
0001e0 06 a8 bf be 05 7b 31 be 80 86 8a be 6c e0 09 3c
       -0.3743288 -0.17332084 -0.2705574 0.008415323
0001f0 5f be 9c 3c 7b 0b cd bd 36 df 1d 3e 2a bf 08 3e
       0.019133745 -0.10011955 0.1541718 0.13354173

conv1.lin.weight f4 [128, 40]
000000 d0 d3 af 3d 93 6c 2b 3e 09 1e c0 be 94 45 21 3e
       0.08585322 0.16740637 -0.37522915 0.15749198
000010 dd 90 b1 3e 62 f6 43 bd 1d b3 b4 3d ef c3 77 3e
       0.34680834 -0.04784239 0.08823226 0.24195836
000020 3c b1 37 3f 6a 37 78 3e b2 8a 05 bf 16 24 b9 3d
       0.71754813 0.24239889 -0.5216476 0.09040086
000030 81 d5 83 3e 38 09 72 3f 8c 72 3a 3f f5 59 98 be
       0.25748828 0.94545317 0.72831035 -0.29756132
000040 33 db e2 bd 4c 63 a8 3f 21 19 82 bd 40 c0 19 3f
       -0.11076965 1.3155303 -0.06352449 0.60058975
000050 85 74 9e 3d 71 e6 b8 3e 4a 83 14 3f 49 a8 fc 3d
       0.07737068 0.36113313 0.5801283 0.12336785
000060 af d7 e1 3d 5d 09 d7 3e 2d 9f 68 be 0d 3e 51 bd
       0.110274665 0.4199933 -0.2271697 -0.051084567
000070 66 7d 05 be 00 d0 09 3e ea 9d 98 bf c8 b5 75 be
       -0.13036117 0.13458252 -1.1923192 -0.23995125
000080 e0 2a 3e bf b0 2b 17 3e 51 92 7b 3e 1e 04 9e 3d
       -0.7428417 0.14762759 0.24567534 0.07715629
000090 c1 8d 3a 3d 7c 8f 61 bf 88 f5 d3 be c8 47 74 3e
       0.045545343 -0.88109565 -0.41398263 0.23855507
0000a0 c2 82 f5 bc f5 7f b0 bd 0d e2 07 be f6 6e 74 be
       -0.029969577 -0.08618156 -0.13269825 -0.23870453
0000b0 e6 33 c9 3b 3b 8a 91 be bd 9b db bd bd 0d c3 3e
       0.00614022 -0.28425774 -0.10723064 0.3809642
0000c0 db f7 b6 bd 0c c7 4f be c8 1d 35 3e 91 fc 65 3e
       -0.089339934 -0.20290774 0.17687142 0.22459628
0000d0 58 95 ab 3e 0b d3 8c be 6e b7 1d 3f 16 4b e0 3e
       0.33512378 -0.27504763 0.61608016 0.43807286
0000e0 c5 37 2e 3f d2 5e 6e 3e 95 04 97 bd 95 a3 19 bf
       0.6805385 0.23278359 -0.07373921 -0.6001523
0000f0 0e 9a 77 3f d7 67 19 3f ce 05 88 3e a7 50 3e 3e
       0.96719444 0.5992407 0.2656693 0.18585454
000100 d5 c1 08 be bd 27 93 be 1e e0 09 3f 12 23 b5 3e
       -0.13355191 -0.28741255 0.538576 0.3537832
000110 85 99 40 3f e7 01 b1 3e cf 8f 9b bd 7a b2 13 3f
       0.7523425 0.34571764 -0.07595789 0.5769421
000120 01 0d fd be a5 ab df be 4f 70 07 bf 4d a9 19 bf
       -0.49423984 -0.43685642 -0.52905744 -0.6002396
000130 1d 88 e2 3d 67 a5 98 3f 9c 52 2a 3f f6 1c 6a be
       0.11061118 1.1925477 0.665323 -0.2286261
000140 a6 02 cc 3d f5 26 56 be 71 bc ba be a2 29 cd 3e
       0.09961443 -0.20913298 -0.36471894 0.40070826
000150 e9 9f af bd 78 3b 29 be a1 85 16 3d 8e 1f 90 3d
       -0.08575422 -0.16526592 0.036748532 0.070372686
000160 e3 17 12 3f 33 a3 73 bf 0a 39 fc 3d 05 18 8a 3f
       0.570677 -0.951709 0.12315567 1.078858
000170 ce a9 32 bf 69 64 b8 3d d6 d7 e1 be 1a 3f 31 3e
       -0.6979035 0.09003527 -0.44109982 0.17309228
000180 c4 9f 89 be fd 45 21 3e a1 3a 91 3d 30 da 74 3e
       -0.26879704 0.15749355 0.07091261 0.23911357
000190 70 e3 76 bf 74 0a dd 3e c2 a8 83 3e 97 ea e5 bd
       -0.9644079 0.43172038 0.2571469 -0.11226385
0001a0 a3 2d 22 3e c9 f3 84 be 23 73 a0 be e1 cb 4a bf
       0.15837722 -0.25967243 -0.31337842 -0.79217345
0001b0 54 6f 8f be 96 43 2a bf 6f bc bf 3e 4a 5a 26 bf
       -0.28014624 -0.6650938 0.3744845 -0.6498152
0001c0 95 27 0b be f9 c0 61 be 8e d7 37 3e ca 12 d3 be
       -0.13589318 -0.2204627 0.17953321 -0.41225272
0001d0 d5 29 a0 3d 48 26 69 bf 5d 86 59 bf 0f 7b 9c bf
       0.07820479 -0.9107404 -0.8497065 -1.2225055
0001e0 f4 2d 9f bc 85 89 9d 3c f8 8d 13 3f 4f 58 04 be
       -0.019431092 0.019230613 0.576385 -0.12924312
0001f0 46 28 37 3f f2 65 83 3e 92 57 a3 3e 7e 7e c2 3e
       0.7154583 0.25663716 0.31902748 0.3798713
000200 b3 1e fd be 40 50 e3 be 33 df 18 3f 7f c9 11 bf
       -0.49437484 -0.44397163 0.59715575 -0.56948084
000210 dd 6c ef 3d f5 77 5f bf f6 ce 20 bf 48 c6 f8 3e
       0.11690686 -0.87292415 -0.628158 0.48588777
000220 8f 24 52 be 76 7e 40 bf 77 f5 ae 3e 91 da 48 bf
       -0.20521758 -0.75192964 0.3417165 -0.78458506
000230 37 ec f8 3d 7a 8f 18 3d 4b 61 ba 3e a5 6f 5f bf
       0.121544294 0.037246205 0.36402354 -0.8727973
000240 73 e9 03 3d 43 0d 0a bf 10 34 df be f5 ec 4a 3f
       0.032205056 -0.53926486 -0.43594408 0.7926782
000250 83 1c 23 bf e4 ae a9 3d a5 f2 6e be ab b5 53 3e
       -0.6371538 0.08285311 -0.23334749 0.2067477
000260 45 9d f0 bd 30 07 55 be 0c f7 6e bd ef 3a af 3e
       -0.11748747 -0.20803523 -0.05834107 0.3422465
000270 6b 33 15 3f 93 23 85 3d ec 93 ad be 04 bd 10 3e
       0.5828158 0.06500926 -0.33901918 0.14134604
000280 82 ff 6f 3e 96 7f fc 3d 98 ae 7b be e9 e9 ee 3d
       0.23437312 0.123290226 -0.24578321 0.116657086
000290 09 39 fa 3e 3d 62 d4 3d b5 ba e5 be 33 65 d1 3c
       0.4887164 0.103703 -0.4486901 0.02556095
0002a0 e4 29 b1 bc d9 c7 34 3f 11 6f de be d8 e2 1c be
       -0.02162642 0.70617443 -0.43444112 -0.15320909
0002b0 c6 ac df 3e e0 2f 79 3d 4d a8 47 bf c7 08 8c bf
       0.43686503 0.060836673 -0.7799118 -1.0940179
0002c0 ce 66 51 3f 7d 41 87 3d 43 f3 94 bf 83 22 97 bd
       0.8179749 0.06604288 -1.1636738 -0.073796295
0002d0 83 a3 e7 3d 65 b2 6d bf 8f c1 23 bf 84 70 bf be
       0.11310484 -0.92850333 -0.6396722 -0.3739053
0002e0 fa 41 63 be d9 1f ae 3e 40 ce f1 bb 72 4e 2a 3f
       -0.22193137 0.34008673 -0.0073793232 0.6652595
0002f0 fc d7 4a 3e 60 04 03 3e 60 53 3c 3e 46 d6 a4 3e
       0.19808954 0.12794638 0.1839118 0.32194728
000300 b0 57 24 3f bd 01 6f 3e a7 9f f7 bd 79 a9 72 3d
       0.641963 0.23340507 -0.12090998 0.059243653
000310 37 36 d8 3e ce db 0b bf f8 24 b2 bb 16 89 d7 be
       0.42228863 -0.5463227 -0.005436536 -0.42096776
000320 45 e0 a8 bd ad b1 12 be ba 49 85 bd 33 2e c7 be
       -0.08245901 -0.1432559 -0.06508203 -0.38902435
000330 b9 6a 01 3f 02 41 2a bf c1 a5 f3 3e ca c8 15 be
       0.5055347 -0.66505444 0.47587398 -0.14627376
000340 fb 93 95 3e d2 d5 96 bf fe c5 2d be 0d 7d 65 3e
       0.29214463 -1.1784003 -0.1697006 0.22410984
000350 d1 55 d4 be 52 8b 05 bf 9c 1e bb bd 6b 6a ea 3d
       -0.41471723 -0.5216571 -0.09136698 0.11446079
000360 e5 6b 00 be e3 84 29 3f 05 85 50 3c de 0c f7 be
       -0.12541158 0.66218394 0.012727027 -0.48252004
000370 77 1f 8f 3e 41 5f 94 3e 9e 4e 16 bf 9c c8 2c 3d
       0.27953693 0.28978923 -0.5871371 0.042183504
000380 31 b2 13 bd fa 35 a6 be ea 63 b8 bd b2 da 8f be
       -0.03605861 -0.32463056 -0.09003432 -0.2809654
000390 19 9e 03 3f 25 87 3e be 0d 02 33 be 19 58 64 be
       0.5141311 -0.18606241 -0.17481251 -0.22299232
0003a0 e3 ad ba 3e c3 8c f0 be 1d d5 f4 bc 82 3a 0e 3d
       0.3646079 -0.46982393 -0.029886777 0.034723766
0003b0 0b d9 90 be 59 3a a0 3e 41 0e d8 3c bc 99 7a bf
       -0.2829059 0.31294516 0.026373984 -0.9789083
0003c0 42 72 c3 bb 40 14 90 be b2 42 b1 3e 90 bf 78 be
       -0.0059645483 -0.2814045 0.34621197 -0.24291825
0003d0 3b c9 3f bf b9 25 45 3e a1 90 a7 be ca ac 11 bf
       -0.7491643 0.19252671 -0.3272753 -0.5690428
0003e0 68 1f c1 be 1d 71 6e 3f 72 42 15 bd 96 98 a8 be
       -0.37719274 0.9314135 -0.03644032 -0.32928914
0003f0 1d 66 95 3e e2 73 7d be de a8 ae be e3 bc 71 3e
       0.2917947 -0.24751237 -0.3411321 0.23607211

conv2.bias f4 [128]
000000 16 09 34 be f0 6d 2d be 3f 05 08 be 4e 10 f9 bd
       -0.17581591 -0.16936469 -0.13283251 -0.12161313
000010 0d aa 83 bd d8 a7 c5 3c 99 e1 0e be ba f7 a2 bd
       -0.06428919 0.024127886 -0.13953246 -0.07957406
000020 ef 07 ad be 38 7b 50 3e 54 c3 ca 3d 12 01 ef 3c
       -0.33795115 0.20359504 0.09900537 0.029175315
000030 07 fc 13 bf e7 a8 59 be ba b3 d5 be fb 30 52 be
       -0.5780644 -0.21255837 -0.41738683 -0.20526497
000040 71 12 af bd 56 84 8e be e2 63 d9 be c9 fa a5 bd
       -0.08548439 -0.2783534 -0.42459017 -0.08104474
000050 82 c6 5d 3d 14 df 81 bd 45 85 7c 3b 99 5a 53 be
       0.05414439 -0.06341377 0.0038531583 -0.20640029
000060 60 84 55 be f9 a3 11 bd 62 63 b6 bd 2d f1 6d be
       -0.20851278 -0.035556767 -0.089056745 -0.23236533
000070 ee 23 14 be 4f ac 32 be 8a 49 7a be 32 b3 ba be
       -0.14466831 -0.17448543 -0.24442115 -0.3646484
000080 d6 7f cc bd 99 2f 32 3d 47 25 9b be 44 52 42 be
       -0.0998532 0.043502424 -0.30301878 -0.18976694
000090 68 b4 25 3e 79 b4 81 3d b7 28 89 be 90 5e 87 be
       0.16182101 0.063332506 -0.26788875 -0.26439333
0000a0 27 3b f4 bb 14 91 1d be b1 cb 4c bc 93 de 91 3e
       -0.0074533406 -0.15387374 -0.012499736 0.28490123
0000b0 c5 a9 8f 3d e4 7b 39 bd 06 aa 70 be b2 64 6b be
       0.07014803 -0.045284167 -0.23502359 -0.22987631
0000c0 bf ab d3 bd 88 ef 72 3e 82 c8 43 3d 66 c5 db bd
       -0.10335492 0.23724186 0.04779864 -0.1073101
0000d0 fa 98 21 be 28 c2 85 be 2c 7a ab be 7e 7a 1f be
       -0.15781012 -0.26124692 -0.33491647 -0.15574071
0000e0 4a fd bd be f3 86 5f 3e 64 cd 1d be 5b 01 90 be
       -0.37107307 0.21828823 -0.15410382 -0.28126034
0000f0 ab 96 84 bd 80 f9 80 be 8b 65 83 3d 18 43 5d 3d
       -0.0647405 -0.25190353 0.06415852 0.054019064
000100 d9 58 34 be 0e 63 15 3e fe 9b 0e be 7a c6 76 be
       -0.17612018 0.14588568 -0.13926694 -0.2409915
000110 41 6a e0 3d 61 a9 86 be bc c7 1e 3e 83 47 55 be
       0.10957766 -0.263011 0.1550588 -0.20828061
000120 d3 8a 15 be 9f bd 7d be ab 11 8b be b7 1b d1 be
       -0.14603738 -0.24779366 -0.27161917 -0.40841457
000130 23 bd 37 be 75 d6 d5 3b d7 d6 0a 3d 6b 69 70 be
       -0.17943244 0.0065258094 0.033896293 -0.23477714
000140 af c8 9c bd e9 00 0d be 66 76 8f be 1f fc 26 3d
       -0.07655465 -0.13769878 -0.28020018 0.040767785
000150 ee 1f 39 be 5f d7 22 be fd 2a b7 bc fa 95 65 bd
       -0.18078586 -0.1590247 -0.022359366 -0.056051232
000160 98 e4 c4 bc 93 58 72 be 5a b1 0c be e2 be fd bd
       -0.024034783 -0.23666601 -0.13739529 -0.12389924
000170 0b 3f d0 3e f9 ca ab be b4 ee b4 bd 66 f8 52 be
       0.40673098 -0.33553293 -0.088345915 -0.20602569
000180 c6 76 54 bb c6 70 20 be 68 4f 5a bc 39 80 bc 3e
       -0.0032419427 -0.1566802 -0.013324596 0.36816576
000190 fd 95 c4 bb 98 e6 49 be 29 a3 6c bd 93 89 97 bd
       -0.0059993253 -0.19716871 -0.05777279 -0.07399287
0001a0 10 c7 56 be ab 1f e3 3d d9 1f 0a 3e 9c 82 97 be
       -0.20974374 0.110900246 0.13488711 -0.29591835
0001b0 25 1b be bd 5c 34 f1 3b 5f 68 92 3d 88 9c ed ba
       -0.09282521 0.007360978 0.071488135 -0.0018128315
0001c0 07 34 41 be 1d b7 dd bd 1d f0 87 be a7 3c 62 bb
       -0.18867503 -0.10825942 -0.2655038 -0.0034521015
0001d0 e1 5d 81 bd c0 47 0a 3e 91 93 8c be be 66 8e be
       -0.06316734 0.13503933 -0.27456334 -0.2781276
0001e0 c8 38 3b bd 5e 77 bd be 1c 81 ed bd 5a 5a 27 be
       -0.045708448 -0.37005132 -0.11596891 -0.1634306
0001f0 97 fe a3 bc b4 95 d0 bd d3 3f b8 bd 38 24 3f 3d
       -0.020018859 -0.101848036 -0.089965485 0.0466654

conv2.lin.weight f4 [128, 128]
000000 d4 53 14 3e 7d 86 0f bf c5 c5 21 bf 76 67 27 bd
       0.14485103 -0.5606459 -0.631924 -0.040870152
000010 a8 25 16 be 05 85 34 3b 7f 62 40 3f 20 da f5 bc
       -0.14662802 0.0027545106 0.75150293 -0.030011237
000020 bb 27 1b bf 30 16 35 be 17 7c 48 3d 05 70 c9 bc
       -0.606075 -0.17684245 0.048946466 -0.024589548
000030 e4 d8 a5 3d fa e2 e5 bd e4 7f 85 bd 21 ff 84 3e
       0.08098009 -0.11224933 -0.06518534 0.25975898
000040 44 61 c5 3d 23 37 8a 3a a4 84 da be 02 3a 63 3d
       0.096376926 0.0010544996 -0.42679322 0.055475242
000050 47 65 c0 3e 80 da 19 bf 7a 89 f4 bd e2 fa 4b bf
       0.37577268 -0.6009903 -0.11940284 -0.7967969
000060 4c 68 75 3e 40 f8 26 3e 6d 11 c0 be 37 55 ab bf
       0.23965567 0.16305637 -0.37513295 -1.338538
000070 89 3d ba be b8 95 1e 3e 75 cd 15 3f 00 98 82 bf
       -0.36375073 0.154868 0.5851663 -1.0202637
000080 55 49 12 bf 61 91 12 bf c7 9b e5 3d 17 1e 7f bf
       -0.57143146 -0.5725308 0.11211353 -0.9965529
000090 01 34 b3 3d 01 e3 20 3d f5 19 ea 3e f2 ff de be
       0.08750153 0.039278988 0.4572293 -0.43554646
0000a0 83 2c e2 bc f6 da da bd 70 d8 2a bf 18 28 2f 3e
       -0.027609115 -0.10686295 -0.6673651 0.17105138
0000b0 84 9c ac 3e e5 87 6d be 8d 93 b9 3c 0f e0 ba 3e
       0.33713162 -0.23196371 0.022653366 0.36499068
0000c0 f5 a5 0a 3d 68 d0 65 be ce d8 57 bd df 5c b9 be
       0.033849675 -0.22442782 -0.052696995 -0.36203668
0000d0 4e a1 5c 3e ac 5e 45 bf a5 90 ea be eb e0 11 3e
       0.21545908 -0.7709758 -0.4581348 0.14245956
0000e0 79 57 8c 3d 0f 64 c6 be 86 de b4 3d c2 17 99 3e
       0.068526216 -0.38748214 0.088315055 0.29900938
0000f0 5b 27 ba be 17 d9 07 3f 9e af 50 3d fc df 54 3e
       -0.3635815 0.5306563 0.05094873 0.20788568
000100 98 96 b9 be ef 57 90 3d 05 2c 4b bf 3b 8e 0a bf
       -0.36247706 0.07048022 -0.79364043 -0.54123276
000110 90 e6 a4 bd ee 75 f1 be f2 53 00 bf 48 33 3d 3e
       -0.08051789 -0.47160286 -0.5012809 0.18476593
000120 2d a1 88 be e8 a3 f3 be c5 a4 15 3f ed 13 2a bf
       -0.26685467 -0.47585988 0.58454543 -0.66436654
000130 b8 3a 0b 3d b4 dc cf be 01 2f 4c 3b ba 9c 4f be
       0.033991545 -0.4059807 0.0031155946 -0.2027463
000140 d8 84 9d be ce 74 08 bf 25 fd a9 be 4a de 02 bf
       -0.30765414 -0.5330323 -0.33200946 -0.51120436
000150 6a c0 99 bd 31 d5 7c be fe 44 7d be f2 56 1f be
       -0.07507403 -0.24690701 -0.2473335 -0.15560511
000160 dd b5 43 bf 02 74 3b 3e 52 63 5c be 4c 2b 6e 3e
       -0.76449376 0.18305972 -0.21522263 0.23258704
000170 6c 36 85 be bf ec 16 bf 7c 86 e5 3e f3 e9 6b bf
       -0.26018083 -0.58954996 0.44829166 -0.92153853
000180 29 74 0d 3f f1 70 a0 be 5f 17 c2 3e 36 61 2d 3e
       0.5525537 -0.31336167 0.37908456 0.16931614
000190 f2 4e 5e be 69 79 37 bf 5f 63 73 bf 76 69 45 be
       -0.21709803 -0.7166963 -0.95073503 -0.19278511
0001a0 32 34 9b bf 6d 2f 1d 3e 0b e1 11 3e 2f 3f c4 3d
       -1.2125304 0.15350123 0.14246003 0.09582364
0001b0 e3 41 57 3e 3d c3 83 be 41 a2 04 3e 0d 95 82 bf
       0.21021228 -0.25734892 0.1295252 -1.0201737
0001c0 c9 2c de 3d 67 58 0d bf 56 f5 b8 3e 8d 6f 35 bc
       0.10848386 -0.55213016 0.36124676 -0.011073959
0001d0 21 98 c2 be 3c 59 f8 bd de b2 01 bf 6f 62 7f bb
       -0.3800669 -0.12126395 -0.50663555 -0.0038968583
0001e0 98 9c 47 3e 67 50 85 3e 02 06 ed be c3 da 74 3d
       0.1949333 0.26037905 -0.46293646 0.05977894
0001f0 47 ac 7c bf 92 92 21 bf bd de 51 bf e7 f6 e2 bd
       -0.98700374 -0.63114274 -0.81980497 -0.11082249
000200 e9 b1 03 bf cc de 9c be bb a1 2d be 07 d4 8d 3e
       -0.51443344 -0.3063873 -0.16956227 0.27700827
000210 8b 0d 7c 3e 7e 0c 1e be c0 c8 ee 3e 55 c5 4c be
       0.24614541 -0.15434453 0.46637535 -0.19997151
000220 c0 28 ef be cb a0 57 3d c9 87 02 bf f0 8f 71 be
       -0.46710777 0.05264358 -0.5098844 -0.23590064
000230 59 25 89 3e d1 aa 4c be e7 fb ad be d4 ea 39 3e
       0.26786307 -0.19987036 -0.3398125 0.18155986
000240 ec ac ef 3e a5 5a 0f bf cb bc 17 3d 0e 0c 0c be
       0.46811616 -0.5599769 0.03704528 -0.13676473
000250 bd f8 52 be ee 8d 20 bf 1b ac 4d be e7 6e 15 3f
       -0.20602699 -0.6271657 -0.20085184 0.5837235
000260 b4 e3 cc 3e e7 63 8a 3e 4f cf 4f bd a5 6e 3e bf
       0.40017474 0.27029344 -0.050734814 -0.7438758
000270 c3 68 bd 3e 8f 41 1a be b6 10 8e 3d f9 94 24 3e
       0.3699399 -0.15064071 0.06936781 0.16072454
000280 26 f7 1e be 9c 6c 04 3e 41 40 ad bd d2 62 1b 3e
       -0.15523967 0.12932056 -0.08459521 0.15174416
000290 c5 f4 c9 3e 19 e4 b9 be c6 47 ef be 39 21 86 3e
       0.39444557 -0.36306837 -0.46734446 0.26197222
0002a0 85 d5 b6 be d3 79 90 be 96 c0 ec 3d 55 5e 8c be
       -0.35709777 -0.28217945 0.1156017 -0.2741572
0002b0 b1 a4 a8 3e 53 9a b2 3e 56 71 5c bd 96 a3 6d bd
       0.3293815 0.34883365 -0.053819023 -0.058017336
0002c0 10 7f ae 3e 53 4b 35 bf 1f 60 69 3d 5c 86 91 3d
       0.34081316 -0.7081806 0.056976434 0.07105705
0002d0 16 ba 09 bf e6 d1 d0 be 84 49 28 3e 69 76 81 be
       -0.5379957 -0.4078514 0.16434294 -0.25285652
0002e0 74 06 d4 bd 54 77 67 3e c6 c3 e3 3d f5 31 b4 be
       -0.10352793 0.22604114 0.11121325 -0.35194364
0002f0 46 05 23 3d d2 29 28 be b6 43 13 be 59 2b f1 3d
       0.03979995 -0.16422203 -0.14381298 0.11775846
000300 e0 a3 78 be e4 64 6a 3e bf ca f2 be e7 b9 5d bf
       -0.24281263 0.22890049 -0.47420308 -0.8661179
000310 e0 82 77 bb 81 85 2c bb e7 80 90 be 87 1e f4 bd
       -0.0037767217 -0.0026324692 -0.28223345 -0.11919885
000320 b0 49 32 3f 13 01 52 be 03 4c d9 be f5 05 ac be
       0.6964369 -0.20508222 -0.42440805 -0.33598295
000330 ca ea d5 be 27 61 1f bf a2 7e 23 3d dd b8 9e be
       -0.41780692 -0.6225762 0.03991569 -0.31000414
000340 6c 64 d6 be fc b1 0b 3f 4b 48 49 be 49 11 94 3f
       -0.4187349 0.5456846 -0.19656484 1.1567775
000350 dc 1a 61 bd bf 86 6d bd 18 fc 8b 3d 0e 9d a9 be
       -0.054957256 -0.057989832 0.068351924 -0.33127636
000360 58 aa 33 3b 76 47 20 3e 84 e3 cd 3d 9f ca 87 3e
       0.0027414765 0.1565226 0.10053161 0.26521775
000370 8d 1a fd be 46 b1 9a 3e dc e7 18 be 31 a5 2f be
       -0.4943432 0.30213374 -0.14932197 -0.1715286
000380 b2 dc 10 3f 9b 71 12 be 36 17 b9 bc 44 6c 09 bb
       0.56586754 -0.1430115 -0.022594076 -0.0020969072
000390 44 b6 a2 be f8 48 af be c6 32 5b 3d fd ca 8e be
       -0.31779683 -0.34235358 0.05351522 -0.27889243
0003a0 f5 df 8e bc e1 f7 05 be bb 19 d3 bd a3 f4 00 3e
       -0.017440775 -0.1308284 -0.10307642 0.12593322
0003b0 7c 2a a5 bd f8 0f 94 be 69 0d 07 3f 90 af 24 bf
       -0.08064744 -0.28918433 0.5275484 -0.6433039
0003c0 e3 aa 29 be 65 44 96 3d c8 d4 7d be bb 99 cd 3c
       -0.16569094 0.07337264 -0.24788201 0.025097718
0003d0 17 07 f7 be 9a 26 ec be 77 fc 81 be 3d 89 7e bf
       -0.48247597 -0.461232 -0.25387928 -0.9942816
0003e0 bf f3 a9 bd b6 4f 09 bd 40 3b 68 3d 93 fc 55 be
       -0.08298444 -0.033523284 0.05669713 -0.2089713
0003f0 ba d1 cc 3d b7 7c 18 3e f5 86 82 bf 5b a1 80 bf
       0.1000094 0.14891325 -1.0197436 -1.0049242

fc1.weight f4 [128, 128]
000000 35 bb 1f be dc 60 8f bd 56 f4 75 be 87 96 ba 3a
       -0.15598758 -0.07000896 -0.24018988 0.0014235534
000010 ef 68 a6 3e 24 f4 81 3d f2 de 8e be 16 92 0e bf
       0.32501933 0.06345394 -0.2790447 -0.5569166
000020 42 fb 1c 3f 1b a4 fe be c7 bd b8 3e 6b 2c b2 3e
       0.6132089 -0.49734578 0.3608229 0.34799513
000030 b7 72 d5 3d 0c e8 86 be 93 01 76 be a9 d0 a3 be
       0.10422271 -0.26348913 -0.24024038 -0.31995133
000040 c4 29 0c be 42 9e 6c bd 85 fd 24 3d ee b5 bd 3e
       -0.13687807 -0.057768114 0.040280838 0.37052864
000050 b4 ab 53 3e 35 a6 1b be 94 c8 9a 3e dc 9d 8a bd
       0.20670968 -0.15200122 0.30231154 -0.067683905
000060 02 2d f2 3e 6f 15 06 3e b3 03 5a 3c 27 f1 92 be
       0.47299963 0.13094114 0.013306546 -0.2869961
000070 e8 b8 8b 3e 51 5d ae 3e 51 33 cd be 89 77 04 bf
       0.2728951 0.3405557 -0.40078214 -0.51744896
000080 92 c2 13 3e c9 ce 8d be 9c 24 8d be 4e 3b 1a 3e
       0.14429691 -0.27696827 -0.27566993 0.15061685
000090 90 ee 20 3e 2a 41 f2 be 73 9f c4 be 2c 78 c9 3d
       0.15716004 -0.4731534 -0.384029 0.09837374
0000a0 b3 ea af be 8e 5b d6 3e 03 51 c2 be 6f 52 18 be
       -0.3435875 0.41866726 -0.37952432 -0.14875196
0000b0 38 71 ee be 76 c5 d9 be c8 c5 86 bc 3f bb 90 3d
       -0.46570754 -0.42533463 -0.016451731 0.07066964
0000c0 3d 4a 19 be 85 e2 92 be 80 58 c7 3e 8d c6 0f bd
       -0.14969726 -0.28688446 0.38934708 -0.035101462
0000d0 a7 ce 9b be 00 a1 6b be 44 d1 05 3e 62 31 80 3e
       -0.304311 -0.23010635 0.1306811 0.25037676
0000e0 7f c7 fa bd 91 0c af 3e 40 88 71 be d6 2f d8 3e
       -0.12245082 0.34189275 -0.23587132 0.42223996
0000f0 ad 25 82 be db 0c fa 3e 30 8b 88 bd 28 d0 09 bf
       -0.2541937 0.48837933 -0.06667173 -0.53833246
000100 0c ce 34 3e 7b e4 c3 3d d5 b6 0a be 4c 6b 41 be
       0.17656726 0.095650636 -0.13546307 -0.18888587
000110 47 f6 a0 be 5c 51 89 bd cf fa d0 3d 8e 20 df 3e
       -0.31437895 -0.06704971 0.10204088 0.43579525
000120 99 d8 d5 3d 91 9f 4e be d1 a1 d5 3d ca a1 1d bf
       0.10441703 -0.20178057 0.10431255 -0.61574996
000130 77 5d c6 bd b7 3b b9 3d 9e de 3a 3e ec a4 a1 be
       -0.09685796 0.09044593 0.18248984 -0.31571138
000140 f3 5a 0d bf fb 8f 94 be ed a2 b3 3e 1b 14 21 3e
       -0.552169 -0.29016098 0.3508524 0.15730326
000150 69 ec e6 3e 28 93 08 3f 3f 78 65 bd 9c 34 25 bd
       0.45102242 0.5334954 -0.05602288 -0.040333375
000160 6c 0a cf 3e 93 a0 1a 3e 50 08 10 be 86 f7 47 be
       0.4043764 0.15100317 -0.14065671 -0.19528016
000170 ad 9a 92 3d 48 98 65 3d 56 86 25 3e fd 9f e6 3d
       0.07158408 0.05605343 0.16164526 0.11260984
000180 28 00 fd bd 1a 25 87 be ac 5c 28 bf 70 d1 34 3e
       -0.123535454 -0.26395494 -0.65766406 0.17658019
000190 b0 a1 d9 be 5b 7c a8 be a3 53 54 3e f4 de 04 bf
       -0.4250617 -0.32907376 0.2073503 -0.519027
0001a0 0a 41 1b be 10 f3 b3 3d 07 46 a7 3e 3a df 6c 3e
       -0.15161529 0.08786595 0.32670614 0.23132029
0001b0 c0 ab 06 bf c7 a9 81 bd 59 a4 35 bf 77 c7 b0 be
       -0.5260582 -0.063312106 -0.709539 -0.3452718
0001c0 97 00 2c 3e 32 6f c1 bd a3 ee a8 3e 5b 4a 84 3d
       0.167971 -0.09445037 0.32994565 0.06459495
0001d0 35 93 aa 3d f6 55 12 3f 7b 8a b6 3e f0 82 f4 3c
       0.08328859 0.57162416 0.35652527 0.029847592
0001e0 85 65 90 be af 37 ad be 94 67 cc 3e aa e4 0c 3f
       -0.28202453 -0.33831546 0.39922774 0.55036414
0001f0 34 5b 30 bf c4 73 35 be 31 9c 29 3e 63 c8 0a be
       -0.68889165 -0.17719942 0.16563489 -0.13553004
000200 9f 47 32 bc fb dd f4 3a ce f1 91 bd df 9d 72 3d
       -0.010881334 0.0018681878 -0.07126199 0.05923259
000210 96 f3 a0 bc 49 4f 17 bd 2b 54 bf bc 86 40 df bd
       -0.0196474 -0.036940847 -0.023355564 -0.10900979
000220 1a 6d 08 3d d6 da d7 bd 4c 2b d0 bc d4 a3 c2 bc
       0.033307172 -0.105397865 -0.02541127 -0.02375976
000230 db 26 dd 3c b9 18 28 bc 8b c6 92 bd 02 1b 9c 3c
       0.026996067 -0.010259801 -0.07166775 0.019055847
000240 b7 d3 75 bd ee 3a 1a be 78 65 4f bd 04 fd fe ba
       -0.06001636 -0.15061542 -0.050633878 -0.0019454067
000250 e7 2f ea bd cc f9 0f bd 07 88 05 be ae e6 ea bb
       -0.11434918 -0.035150334 -0.13040172 -0.0071686124
000260 c4 df 2d 3d c5 64 b2 3a ff 31 22 bd 9c c0 d7 bd
       0.042449728 0.0013610354 -0.03959846 -0.10534784
000270 dd e3 81 3c 56 6a 23 be 81 b1 f2 bd 6c a2 a3 bd
       0.015855724 -0.15958533 -0.118502624 -0.07989964
000280 f7 d7 cc bd 51 6e d9 bc 31 b7 37 3d e8 c5 24 bc
       -0.100021295 -0.02654186 0.04485244 -0.01005695
000290 ef 0b 48 bd 79 a5 d0 bd 3b 9e 61 3d 50 2a 29 bd
       -0.048839506 -0.101878114 0.05508254 -0.041300118
0002a0 ef f6 8a bd 82 8a c9 bd 66 53 dc bd 1e 5d 43 bc
       -0.0678538 -0.098408714 -0.107580945 -0.011924056
0002b0 1f ec 10 be 02 1b 1f bd af bc d2 bd 1c 47 39 3d
       -0.14152573 -0.038844116 -0.10289895 0.04523383
0002c0 2f fa a5 bd 79 2b 47 be d0 27 04 be 5a af 84 bd
       -0.08104359 -0.19450177 -0.12905812 -0.06478758
0002d0 1d 71 82 3d 5a dd 11 bd 03 90 c4 bd ee 46 cd 3c
       0.06369231 -0.035611488 -0.095977806 0.025058236
0002e0 f7 68 e0 bc f1 4f 69 bc 5b 93 17 be f1 63 c0 bd
       -0.027393801 -0.014240251 -0.14802305 -0.09394062
0002f0 07 05 84 3c 26 a9 8e 3b 41 a5 8c bd 45 f7 0c bd
       0.016115678 0.00435366 -0.06867457 -0.034415502
000300 6a a6 05 be 05 08 8c bd 5d 25 a5 bd f8 6c 0a be
       -0.13051763 -0.06837467 -0.08063767 -0.13518131
000310 9e a4 75 bd be 46 26 3d fb af 97 bd 04 ad b2 bb
       -0.059971444 0.04059481 -0.074066125 -0.005452754
000320 4b 05 fb bd 41 2d 0b be 43 88 de bc 66 c1 b8 bd
       -0.12256869 -0.13591482 -0.027164584 -0.09021263
000330 b4 80 31 be b1 ca e1 bd 05 55 57 bc 7a 77 c8 bd
       -0.17334253 -0.110249884 -0.013142829 -0.09788413
000340 03 98 b2 bd f3 77 15 be a0 f0 c8 bd 12 a1 32 bd
       -0.087204 -0.14596538 -0.098115206 -0.04361064
000350 bd cb 9f bd dc 47 fe bd 60 71 ae bd 12 fd 8a bd
       -0.07802532 -0.1241605 -0.08517718 -0.067865506
000360 93 65 35 bd 95 44 30 bd d5 24 8b bd 53 80 ca bd
       -0.04428632 -0.043034155 -0.067941345 -0.09887757
000370 04 43 00 be 9d 71 87 bd 22 c1 e4 bc e2 13 e5 bc
       -0.12525564 -0.06613467 -0.027924124 -0.027963582
000380 58 bd b7 bc a9 1a e7 3c 49 86 e3 bd 29 0c e3 bd
       -0.022429153 0.028210955 -0.11109597 -0.11086304
000390 c7 df fb 3c 97 0b 74 3d b9 ac 17 be 4b 6a 46 bd
       0.030746354 0.059581365 -0.14811982 -0.048441213
0003a0 73 05 31 3d 01 b9 70 3d e0 ad fe bd 91 1a 55 bd
       0.043218087 0.058770183 -0.12435508 -0.05202729
0003b0 e4 80 20 bd 5e d2 24 3d f8 23 d3 bd 0a b2 0a bd
       -0.03918542 0.040239684 -0.10309595 -0.033861198
0003c0 ba 28 08 be b0 61 93 bd 64 87 b1 3c 6e 38 01 bd
       -0.13296786 -0.07196367 0.021671005 -0.031547956
0003d0 ed ff 1a 3d a9 24 cf bd b7 d7 d0 bd fc 55 5c bd
       0.037841726 -0.10114414 -0.10197394 -0.05379294
0003e0 85 a5 aa bd b4 2d 03 be f8 94 df bb 97 97 27 be
       -0.083323516 -0.12810403 -0.0068231784 -0.1636642
0003f0 bb 79 a6 bc 12 2c b6 bd e7 eb ca bd 93 59 83 bd
       -0.020321717 -0.088951245 -0.09908276 -0.06413569

fc1.bias f4 [128]
000000 bd 61 9d 3e dd fc 74 bd a4 46 90 3e 80 4d 01 be
       0.3073863 -0.05981146 0.28178895 -0.1262722
000010 c8 85 5f be 06 2c 73 3e 38 09 93 be e0 6a 8e bd
       -0.21828377 0.23747262 -0.2871797 -0.069539785
000020 44 10 48 be 7b 43 23 bf 6d 3c 83 be e2 95 7c 3e
       -0.19537455 -0.6377484 -0.2563204 0.24666551
000030 28 ea 6c be 91 15 37 3c 31 3c 13 be 70 84 44 be
       -0.23136199 0.011174575 -0.1437843 -0.19191146
000040 84 4a bf bd c9 70 5f be cf 9f 0a be b5 51 01 bf
       -0.093403846 -0.21820368 -0.13537525 -0.505153
000050 4b ba dd 3e 87 37 c4 bd 32 41 cf be 5e 01 e0 be
       0.43306193 -0.095809035 -0.40479428 -0.43751043
000060 41 72 67 3a 0d dc 9d bd da c7 30 3e 3b dd 71 3e
       0.0008828976 -0.07707987 0.17263737 0.23619549
000070 b3 aa 2c be 3e 4c a1 bd 86 9a 49 bd 76 20 d8 bd
       -0.16861992 -0.0787587 -0.04921963 -0.105530664
000080 4e aa b3 bc eb ac 01 bf eb e1 01 bf 51 65 04 be
       -0.021931794 -0.50654477 -0.5073535 -0.12929274
000090 62 ec f9 3c cd 13 2b be ea 53 bf be e5 c2 ef be
       0.030508224 -0.16706772 -0.3736871 -0.4682838
0000a0 8a 88 91 bc bc 35 8c 3e 17 32 0f bf fb bf f7 bd
       -0.017765302 0.27384746 -0.55935806 -0.12097164
0000b0 64 30 a0 3e 3b 18 3b be 81 da 3c be 05 fa 10 bd
       0.3128692 -0.18270962 -0.18442728 -0.035394687
0000c0 93 de 3a 3e 57 1a 3b bd 43 6b 83 3e 85 8a ee be
       0.18248968 -0.045679417 0.25667772 -0.46590057
0000d0 05 c5 02 bf 8f 8f 80 3d 60 64 ce 3e db a1 66 be
       -0.5108188 0.06277382 0.40310955 -0.2252268
0000e0 44 20 5d 3e af 67 4b 3d c6 57 54 be bc c8 5f 3d
       0.2159434 0.049659427 -0.20736608 0.054634795
0000f0 ef b9 f9 3d 45 3d e2 3e f5 c5 99 3e 75 cf 3c be
       0.12193667 0.4418737 0.30033842 -0.18438514
000100 31 2e ff bd 21 e2 10 3e e7 36 bd be ca 38 a3 be
       -0.12459982 0.14148761 -0.3695595 -0.31879264
000110 b2 07 de 3e 0d eb f0 be 87 26 b2 be 62 f0 6c 3e
       0.43365246 -0.4705433 -0.3479502 0.23138574
000120 20 ed f9 bd 6e 0b 93 bd de 3b 02 be 2e 1a 95 bd
       -0.12203431 -0.071799144 -0.1271815 -0.07280384
000130 e0 d0 34 3e dd 4a ed be 25 79 10 3e 58 07 9e 3c
       0.17657804 -0.4634618 0.14108713 0.019290611
000140 51 73 db bd d2 26 19 bf 5c bd 05 be 83 f7 e9 be
       -0.10715354 -0.5982486 -0.13060516 -0.4569665
000150 8e 1e ce 3e fe 95 78 bd 7a 60 37 3e 58 7d 36 3e
       0.40257686 -0.06068992 0.17907897 0.17821252
000160 11 e8 66 bd 49 97 09 bd 2b 09 5b bd 29 13 cf bd
       -0.05637366 -0.033591542 -0.05347554 -0.101110764
000170 8c 97 10 be ab df d1 3d 47 99 df bd 5a 08 4d 3e
       -0.1412031 0.102477394 -0.10917907 0.20022717
000180 4a 49 28 bf a9 cf f4 be 6c d5 ee 3b 24 ff 57 be
       -0.6573683 -0.47814682 0.0072886255 -0.21093422
000190 da 6d 6a 3c 71 ab c3 be ac d9 09 3e 29 35 80 3d
       0.014308417 -0.38216737 0.13461941 0.062601395
0001a0 9b d9 cd bd 91 12 79 be 7b a3 2a bd 25 eb 0d 3e
       -0.100512706 -0.24323489 -0.041659813 0.13859232
0001b0 a6 32 a8 3e 2d 6a d6 be f4 f0 02 be a9 6a 1c bf
       0.32851142 -0.4187788 -0.12787229 -0.6110025
0001c0 3d 21 62 3d 63 dd 19 bd f2 37 05 bd 4c 05 94 be
       0.05520748 -0.037564646 -0.032524057 -0.2891029
0001d0 6c 33 f4 bd b2 94 98 3e db 34 a8 be 0b d4 95 3c
       -0.119238704 0.29800946 -0.32852826 0.018289587
0001e0 ab 61 71 3d 62 25 8b 3e eb a7 51 be b8 ff 05 3e
       0.058931034 0.27176958 -0.20474212 0.1308583
0001f0 0d 74 1a be 4d 48 b8 bd 99 d8 63 be 39 45 e6 be
       -0.15083332 -0.08998165 -0.22250594 -0.44974688

fc2.weight f4 [6, 128]
000000 db 62 d5 be 8d 87 0d 3d 5f a2 80 be 3c 25 77 3c
       -0.41676983 0.0345531 -0.2512388 0.015084561
000010 9d 99 d1 bd cd f6 b9 bf 42 7d d5 be a7 a3 f3 bd
       -0.102343775 -1.4528443 -0.41697127 -0.118964486
000020 d0 ed a2 be 09 ea 90 3d d1 c7 e3 be ed 74 f0 be
       -0.31822062 0.07075889 -0.44488385 -0.46964207
000030 49 50 6d 3d 43 43 31 bf 20 55 f4 bd 77 71 87 be
       0.057937894 -0.6924326 -0.11930299 -0.26453754
000040 ec f1 cb be de 55 1b be 96 a6 9f 3e 06 71 09 3e
       -0.3983301 -0.15169474 0.31181782 0.13422021
000050 8f 21 26 bf 96 c8 30 3e bc 0d d2 3d f0 9f 36 3e
       -0.64894956 0.17264017 0.10256526 0.17834449
000060 a1 7f 42 be 56 88 e3 bd 8a c6 a3 3d a2 2f 3c be
       -0.18993999 -0.111099884 0.07996853 -0.18377545
000070 27 05 92 bd 59 f0 47 3d d6 f3 c3 be d4 57 91 3e
       -0.07129889 0.048813198 -0.3827197 0.2838732
000080 c3 38 02 3d 76 30 0f 3d f7 8f 26 3e cc 6b e5 be
       0.031792413 0.034958325 0.16265856 -0.44808805
000090 b0 5c 22 bd 36 7d 8f 3d eb 9e 7f 3e 00 8f 45 3e
       -0.039639175 0.07006304 0.24962966 0.19292831
0000a0 84 1f dc bd fa e6 4d bf 86 93 ce 3c 41 92 a4 3e
       -0.10748199 -0.8043057 0.025216829 0.32142833
0000b0 d3 3e 34 bf 30 78 c9 be c3 c2 10 bf c5 53 14 bf
       -0.7040836 -0.39349508 -0.5654718 -0.5794032
0000c0 5a 1f bc be 9a 46 c7 3d 50 4f 33 bf 71 26 08 3e
       -0.3674267 0.09730263 -0.70042896 0.13295914
0000d0 f5 09 be be 97 45 2c 3d 41 ad c4 be 0f 20 e6 be
       -0.37116972 0.042058554 -0.38413432 -0.44946334
0000e0 b2 e6 12 3f 8f 4e b4 be 34 d1 b3 3c c2 b5 09 bf
       0.57383263 -0.35216185 0.021950342 -0.53792965
0000f0 ca 37 5f 3e 24 d6 8d bf 3e 55 00 bf e1 61 ad be
       0.21798626 -1.1080976 -0.5013007 -0.33863738
000100 d8 04 45 be 38 bb ae be d7 3f 55 3e 3b ad af be
       -0.19240129 -0.34127212 0.20825134 -0.34311852
000110 48 fa 22 bf fe 31 bd bd 2f e9 dd bd 1b dc 0d bf
       -0.6366315 -0.09238051 -0.10835492 -0.5541398
000120 44 32 ec be 2b f2 dc 3c f2 e4 33 3d 24 0a 1b bf
       -0.461321 0.026970943 0.04391951 -0.6056235
000130 d8 6d 7c be 6d 6c 5a be 37 71 4a bd 36 aa e2 be
       -0.24651277 -0.21330424 -0.049424376 -0.44270486
000140 8b 28 92 be 1f 3c 07 3e 97 24 61 3e 60 2a d0 be
       -0.28546557 0.13206528 0.21986614 -0.4065733
000150 28 94 0e bf 9e 9d 20 3e 57 45 9d be 1f 98 f8 3d
       -0.5569482 0.15685126 -0.30716965 0.1213839
000160 87 2b b4 3b 2a 8d 39 be 1d 6c 91 be 7d 78 11 bf
       0.005498353 -0.18120256 -0.28402796 -0.56824476
000170 b4 b4 86 3d 9a f7 c8 bd 4d 79 90 3d 24 b5 6d bf
       0.06577435 -0.09812851 0.07054386 -0.92854524
000180 fb 68 da 3c 2a 48 83 3d 32 50 36 3e c6 74 93 bd
       0.026661387 0.064102486 0.1780403 -0.07200007
000190 f7 6f aa 3d ba 9a 75 3d aa c4 e8 be 65 79 d9 3e
       0.08322137 0.059962012 -0.45462543 0.4247543
0001a0 12 7b 80 3c 4c 85 76 3d 02 51 8e bf 36 2e a7 be
       0.015683684 0.060185716 -1.1118472 -0.32652444
0001b0 0a 9e ed be 5d 20 28 3d 7a 6d 55 bd 59 71 d3 3d
       -0.46409637 0.04104649 -0.052106358 0.10324354
0001c0 92 9a 8c be 93 ac 02 3e e6 48 ab bc 0e 12 2e be
       -0.27461678 0.12761144 -0.020908784 -0.16999075
0001d0 cd 80 ea 3d c6 54 58 bf ae 0c 69 be de b5 ad be
       0.11450348 -0.84504354 -0.22758743 -0.33927816
0001e0 3f a9 82 3e 9b 79 43 be 9b 26 af 3d a3 40 df 3c
       0.2551975 -0.19089358 0.08552285 0.0272525
0001f0 0d f5 1c bf 78 8b f3 3d 7d ac b2 be fd 5f 8a 3e
       -0.6131142 0.11891836 -0.34897223 0.27026358
000200 d7 ba 2d bf 19 1a a2 3d 83 a2 d2 be 0e 55 d0 be
       -0.6786322 0.07915134 -0.41139612 -0.40689892
000210 00 34 c0 be 5c 17 a4 be 82 46 d8 be 69 f0 c5 be
       -0.37539673 -0.32049072 -0.42241293 -0.3865998
000220 c4 10 d3 be 12 23 d4 3d 46 e1 f0 3b 65 f2 14 bf
       -0.4122373 0.10358252 0.0073510734 -0.58182365
000230 6d 40 a3 be b6 b7 f7 be 8c 89 15 be d7 3a 8d be
       -0.3188509 -0.48382348 -0.14603251 -0.27583954
000240 67 c1 f3 3d 54 13 0c bf 4b 65 36 bd 0b 9f f3 3d
       0.11902123 -0.5471699 -0.044530194 0.118955694
000250 54 61 29 bf 34 eb 07 bf a9 bc 49 bc b2 43 3b be
       -0.66164136 -0.53093266 -0.0123130465 -0.18287542
000260 3f e2 57 3d 12 7e 04 be a3 a8 fc be 58 e4 02 bf
       0.052706 -0.12938717 -0.4934741 -0.51129675
000270 bc f7 6a 3d ef 28 ac be ee 5f e6 3d 3a f9 24 bf
       0.057365164 -0.3362498 0.11248766 -0.6444279
000280 08 43 93 be f8 ce 2f bb f8 80 6b be 1f ec c8 be
       -0.28762078 -0.0026826244 -0.22998416 -0.39242646
000290 aa b6 dc ba 72 00 ac 3b 21 1c 05 bf f7 a8 d1 3d
       -0.0016839106 0.0052490765 -0.51996046 0.102373056
0002a0 9b 8f a8 3d 00 23 8c be 8f dd c3 3d cf 6e c3 be
       0.082305156 -0.27370453 0.09563743 -0.38170478
0002b0 94 5f 45 bf 18 04 07 bf 81 d4 44 bf 1c 8c e6 3d
       -0.77098966 -0.5274062 -0.76886755 0.112571925
0002c0 88 53 cf bd 6c 53 ee be 96 f3 e1 be b0 9a a8 be
       -0.10123354 -0.4654802 -0.44131154 -0.32930517
0002d0 ee 51 23 3d bc c5 1e bf 3f a6 f1 be 06 d5 0d be
       0.039873056 -0.6202047 -0.47197148 -0.13850793
0002e0 ba 55 8a be 46 a0 93 be fb 09 69 be b9 09 06 bf
       -0.2701853 -0.28833216 -0.22757713 -0.52358586
0002f0 56 f5 c4 be 8a 0f 1f bf 40 a7 ad be 9b 3b ac be
       -0.38468426 -0.62133086 -0.33916664 -0.33639225
000300 31 ae 39 be a7 66 13 be ee 29 b4 be e9 60 c5 3d
       -0.18132855 -0.14394628 -0.3518824 0.09637625
000310 ad 7b e7 be 56 92 13 3e 67 f2 bb be db ea 50 be
       -0.45211545 0.14411291 -0.36708376 -0.2040209
000320 e4 53 5d be b4 ee 17 3d 97 8d fc be 5a ce 16 bd
       -0.21614033 0.03709288 -0.49326774 -0.036817886
000330 d0 35 c0 be dc b1 cb 3d 11 96 70 be 55 1e 6e be
       -0.37541056 0.09946033 -0.23494746 -0.23253758
000340 75 5c d1 3c f3 e2 e5 3d 00 a0 11 bf 3d 35 ca 3d
       0.025556782 0.11224928 -0.56884766 0.09873436
000350 5e 3a 0f bf 7c b5 0e bf 42 68 39 be 4b fc c6 be
       -0.55948436 -0.55745673 -0.18106177 -0.3886436
000360 7a b0 a0 3c 64 a9 02 bf 10 ac 9e be b5 89 b2 3d
       0.0196154 -0.5103972 -0.30990648 0.08717672
000370 5a 4e 35 bf ea 00 ed be d9 4d 2d bf ce ee c6 be
       -0.7082268 -0.4628976 -0.6769691 -0.3885407
000380 b2 db 07 3e a5 6f cf 3d 80 5e 2c be ac 2c 97 be
       0.13267401 0.101287164 -0.16832924 -0.2952627
000390 94 8d a6 be 71 93 8d be 3b c7 82 be 09 96 3c be
       -0.3252989 -0.2765155 -0.25542626 -0.18416609
0003a0 e0 c3 15 bd 23 72 c2 be cb 2c bb be 81 db 89 3c
       -0.036563754 -0.37977704 -0.36557612 0.0168283
0003b0 61 55 05 bf 7f f3 d3 bd 20 a3 2b bd 51 1e c6 3d
       -0.520834 -0.103491776 -0.041903615 0.09673751
0003c0 2f 17 17 bf 87 b1 1b bf 0f 4c ab bd 04 51 b3 3d
       -0.5901975 -0.6081776 -0.083641164 0.08755687
0003d0 db 79 e7 be c0 87 ea be 53 21 ff 3d 65 b5 87 bc
       -0.45210156 -0.45806694 0.12457528 -0.016565988
0003e0 2c 54 d1 be dd e0 6c be 91 6f 59 3d fc 9e e8 be
       -0.4088453 -0.23132654 0.053084914 -0.45433795
0003f0 6a 36 2f 3b df 01 0d bf 01 3a 36 3d ee e1 2f be
       0.0026735314 -0.5508098 0.04448891 -0.17176029

fc2.bias f4 [6]
000000 16 f9 5f bf 54 88 59 3f 24 8e 04 be 36 47 30 3c
       -0.8748945 0.84973645 -0.12944847 0.0107591655
000010 d2 01 c1 be 62 f9 bd 3d
       -0.376967 0.092760816
